GFN(
  (t_model): TimeEncodingPIS(
    (t_model): Sequential(
      (0): Linear(in_features=128, out_features=64, bias=True)
      (1): GELU(approximate='none')
      (2): Linear(in_features=64, out_features=64, bias=True)
    )
  )
  (s_model): StateEncodingPIS(
    (x_model): Linear(in_features=32, out_features=64, bias=True)
  )
  (joint_model): JointPolicyPIS(
    (model): Sequential(
      (0): GELU(approximate='none')
      (1): Sequential(
        (0): Linear(in_features=64, out_features=64, bias=True)
        (1): GELU(approximate='none')
      )
      (2): Sequential(
        (0): Linear(in_features=64, out_features=64, bias=True)
        (1): GELU(approximate='none')
      )
      (3): Linear(in_features=64, out_features=64, bias=True)
    )
  )
  (langevin_scaling_model): LangevinScalingModelPIS(
    (lgv_model): Sequential(
      (0): Linear(in_features=128, out_features=64, bias=True)
      (1): Sequential(
        (0): GELU(approximate='none')
        (1): Linear(in_features=64, out_features=64, bias=True)
      )
      (2): Sequential(
        (0): GELU(approximate='none')
        (1): Linear(in_features=64, out_features=64, bias=True)
      )
      (3): GELU(approximate='none')
      (4): Linear(in_features=64, out_features=1, bias=True)
    )
  )
)
Loading replay buffer from: buffer_TB+LP.pt
 36%|████████████████████████▌                                            | 8905/25001 [36:17<1:05:35,  4.09it/s]
Traceback (most recent call last):
  File "/home/minkyu/gfn-diffusion/energy_sampling/train.py", line 394, in <module>
  File "/home/minkyu/gfn-diffusion/energy_sampling/train.py", line 345, in train
…
