GFN(
  (t_model): TimeEncoding(
    (t_model): Sequential(
      (0): Linear(in_features=128, out_features=64, bias=True)
      (1): GELU(approximate='none')
      (2): Linear(in_features=64, out_features=64, bias=True)
      (3): GELU(approximate='none')
    )
  )
  (s_model): StateEncoding(
    (x_model): Sequential(
      (0): Linear(in_features=2, out_features=64, bias=True)
      (1): GELU(approximate='none')
      (2): Linear(in_features=64, out_features=64, bias=True)
      (3): GELU(approximate='none')
    )
  )
  (joint_model): JointPolicy(
    (model): Sequential(
      (0): Linear(in_features=128, out_features=64, bias=True)
      (1): GELU(approximate='none')
      (2): Linear(in_features=64, out_features=64, bias=True)
      (3): GELU(approximate='none')
      (4): Linear(in_features=64, out_features=4, bias=True)
    )
  )
  (langevin_scaling_model): LangevinScalingModel(
    (model): Sequential(
      (0): Linear(in_features=128, out_features=64, bias=True)
      (1): GELU(approximate='none')
      (2): Linear(in_features=64, out_features=64, bias=True)
      (3): GELU(approximate='none')
      (4): Linear(in_features=64, out_features=1, bias=True)
    )
  )
)
  0%|                                                                      | 0/25001 [00:01<?, ?it/s]
Traceback (most recent call last):
  File "/home/minkyu/gfn-diffusion/energy_sampling/train.py", line 339, in <module>
    train()
  File "/home/minkyu/gfn-diffusion/energy_sampling/train.py", line 308, in train
    metrics.update(eval_step(eval_data, energy, gfn_model, final_eval=False))
…
