GFN(
  (t_model): TimeEncoding(
    (t_model): Sequential(
      (0): Linear(in_features=128, out_features=64, bias=True)
      (1): GELU(approximate='none')
      (2): Linear(in_features=64, out_features=64, bias=True)
      (3): GELU(approximate='none')
    )
  )
  (s_model): StateEncoding(
    (x_model): Sequential(
      (0): Linear(in_features=2, out_features=64, bias=True)
      (1): GELU(approximate='none')
      (2): Linear(in_features=64, out_features=64, bias=True)
      (3): GELU(approximate='none')
    )
  )
  (joint_model): JointPolicy(
    (model): Sequential(
      (0): Linear(in_features=128, out_features=64, bias=True)
      (1): GELU(approximate='none')
      (2): Linear(in_features=64, out_features=64, bias=True)
      (3): GELU(approximate='none')
      (4): Linear(in_features=64, out_features=4, bias=True)
    )
  )
  (langevin_scaling_model): LangevinScalingModel(
    (model): Sequential(
      (0): Linear(in_features=128, out_features=64, bias=True)
      (1): GELU(approximate='none')
      (2): Linear(in_features=64, out_features=64, bias=True)
      (3): GELU(approximate='none')
      (4): Linear(in_features=64, out_features=1, bias=True)
    )
  )
)
  0%|▎                                                         | 112/25001 [00:30<1:53:38,  3.65it/s]
Traceback (most recent call last):
  File "/home/minkyu/gfn-diffusion/energy_sampling/train.py", line 339, in <module>
    train()
  File "/home/minkyu/gfn-diffusion/energy_sampling/train.py", line 305, in train
    metrics['train/loss'] = train_step(energy, gfn_model, gfn_optimizer, i, args.exploratory,
…
