GFN(
  (t_model): TimeEncodingPIS(
    (t_model): Sequential(
      (0): Linear(in_features=128, out_features=64, bias=True)
      (1): GELU(approximate='none')
      (2): Linear(in_features=64, out_features=64, bias=True)
    )
  )
  (s_model): StateEncodingPIS(
    (x_model): Linear(in_features=32, out_features=64, bias=True)
  )
  (joint_model): JointPolicyPIS(
    (model): Sequential(
      (0): GELU(approximate='none')
      (1): Sequential(
        (0): Linear(in_features=64, out_features=64, bias=True)
        (1): GELU(approximate='none')
      )
      (2): Sequential(
        (0): Linear(in_features=64, out_features=64, bias=True)
        (1): GELU(approximate='none')
      )
      (3): Linear(in_features=64, out_features=64, bias=True)
    )
  )
  (langevin_scaling_model): LangevinScalingModelPIS(
    (lgv_model): Sequential(
      (0): Linear(in_features=128, out_features=64, bias=True)
      (1): Sequential(
        (0): GELU(approximate='none')
        (1): Linear(in_features=64, out_features=64, bias=True)
      )
      (2): Sequential(
        (0): GELU(approximate='none')
        (1): Linear(in_features=64, out_features=64, bias=True)
      )
      (3): GELU(approximate='none')
      (4): Linear(in_features=64, out_features=1, bias=True)
    )
  )
)
  2%|█▏                                                        | 215/10001 [05:17<4:01:01,  1.48s/it]
Traceback (most recent call last):
  File "/home/minkyu/gfn-diffusion/energy_sampling/train.py", line 339, in <module>
    train()
  File "/home/minkyu/gfn-diffusion/energy_sampling/train.py", line 305, in train
    metrics['train/loss'] = train_step(energy, gfn_model, gfn_optimizer, i, args.exploratory,
…
